code/ae.model (torch_old, 405661 bytes, 4 tensors)

encode.fc1.weight f4 [64, 784]
00000000: 5411 623c e8e2 533c cc54 abbc c077 f23a
00000010: 80fa 8abb d0a0 5abb 1216 0fbc 00a0 e8bb
00000020: fcae 4dbc 66c4 df3c aef3 fe3c 9025 b83b
00000030: 2497 95bc 0574 e7bc 2fa3 34bd 71fd 3ebd
00000040: 08ae a2bb dcd0 e7bc 642e babb 6cea c6bc
00000050: 2c21 cabc 984f 983b a4e6 793c c3b6 81bc
00000060: 58c9 bb3c 98e1 67bc 012c f7bc 2319 0dbd
00000070: 00ea 0abd acf2 833c 383e 52bc dc4f 493c
00000080: d055 0abf 3b07 95be 2991 c73c c47a a63d
00000090: 65b7 36be 4ceb b63d b1d5 b43d dcd6 3bbd
000000a0: 5970 4fbc 0bb5 38be 7590 3f3e 7ee7 94be
000000b0: c519 e4bd 8f1e 55be f790 993d f38b c13d
000000c0: 652d 39be 6b2e 7abc e8ad a93e 8cd1 53be
000000d0: 7c17 9cbc 6038 2d3c 24ec 873c 60a5 d1bc
000000e0: a0df cd3a 2606 ef3c ee7a 18be 8237 d53d
000000f0: 248d 12be 2776 ec3c 46c3 653e 1a76 3bbe
00000100: a709 893d 57fa 0a3e 1987 a0bc e699 203e
00000110: 686b 1cbc e1cd c13d f567 5e3c e2ce ab3c
00000120: 82a9 08bd f0f1 b0bd 79e8 c53c ba51 4f3d
00000130: 8189 b23d a0e4 833d a0ee 053e fc0b 6abd
00000140: bc91 46be 9f2f ebbd 40e4 91bb a3de a1bc
00000150: d28b cf3c 6445 bfbb 5d8f 56be 4551 e73e
00000160: 7e0e 15bf 790f 633e 1923 b5bd 84d9 5c3c
00000170: b0b9 cb3c 4d95 e5bd 021e a3bc 53f3 3dbd
00000180: f2e6 8bbd 5596 503d d42c 9d3b 835c aebd
00000190: d67a 95bd f27a 09be dddf b53c f5a6 8f3d
000001a0: c96e e23a 3766 92bb fcd0 843d 03ef 08be
000001b0: 7b8e 93bc 9e42 a43d b8e5 e03e 085a f1bb
000001c0: 50a5 02bd 344b 7ebe 892f 93be dcb9 6fbd
000001d0: 2520 7e3c ad78 81bd 2c2c 33be 5a27 06be
000001e0: 69fb 1fbd a1dd 81bd 51d6 633c ef78 5abd
000001f0: bbbf e8bd 48e3 e7bd a944 cabd 2909 63bd
00000200: 803f 95bd 0be5 2bbd cc84 3ebb 6a1c 11ba
00000210: cf2d 813d 3a5e ea3b b380 37bd f47c 01be
00000220: 61f8 cdbd 17ff 023d 957c 7fbd 360a 813e
00000230: 7152 efbc bed9 993c 4b6c 203e 4f66 90be
00000240: ec55 2cbe 2a22 89bc 0702 223d 87ae f4bd
00000250: b65b 64bd b1a6 9f3b df7c 9e3b 88e4 a13c
00000260: 424d edbd c5e2 ecbd bf43 cbbd 44b4 1dbd
00000270: 0548 8cbb 3b7f 4c3c e442 a8bc 3f9d 863d
00000280: f06a f13c 6e2c 6d3d 41e6 613d 5d38 793c
00000290: 2f31 883d a4a2 473e ab87 ed3c fece 8cbe
000002a0: 9492 d1bb 3fd1 573f 3b08 893c c8c1 66bd
000002b0: c27d 103e 7f15 e0bc fde6 053c 2c2b ccbc
000002c0: 6d91 463b 0e97 e9ba 7e9a aabc 5968 cabc
000002d0: ded3 bdbd b75e ddbd 691c 04bd 5aef 1a3d
000002e0: bc35 ad3d d839 2d3d cd1c 3c3c acc6 953c
000002f0: 818f 0a3d da81 853d f97b 393d b861 1e3d
00000300: b377 593c 548f 1b3e 65c6 913e 0c42 b73e
00000310: a172 1c3f 1a3c 993e 5f1f 33be 0d36 7e3d
00000320: ff5d 9ebd 9f49 c8bc 1005 93bb 8c19 47bc
00000330: 1c1b c2bc 63dc 7c3c 9024 d13c 2b42 7abb
00000340: 2d2b 11bd 0603 d6bc cb39 d13b 910a ae3d
00000350: c22c b23d bb5c 4e3d d216 d63b 2c03 0ebd
00000360: e95e 933b 9460 153d 3b96 cb3d 11b3 003d
00000370: e47e 173e 8641 883a d2e7 60bc 1834 9fbc
00000380: d6f4 8a3e a0a8 4abd d560 a23c 6f79 9bbb
00000390: d76d bdbd ec4b 9dbd ee1d 81bc d7f9 4dbd
000003a0: 8932 2b3c dd26 a93c b960 9a3c 7b6f 06ba
000003b0: 3564 aabc b6f7 67bd 7902 793c 5483 513d
000003c0: 3d5c a33d a948 6a3d 588b b5bc 0290 78bd
000003d0: 736e 9bbc 5d75 553d cc7a 2c3d 9678 8d3d
000003e0: 53ff d23d d259 7e3d a00f 9ebd 2789 c83e
000003f0: e637 46bd b510 e93c 6d39 fbbc 5bbb c1bd
0.013798077 0.012932517 -0.020914458 0.0018498823 -0.0042412877 -0.0033360012 -0.008733289 -0.0070991516
-0.012553927 0.02731533 0.031122055 0.005619712 -0.018260546 -0.028253565 -0.044100937 -0.04662842
-0.004964594 -0.028297834 -0.0056817997 -0.024281703 -0.02467402 0.00464816 0.015252743 -0.015834218
0.022923157 -0.014152907 -0.03017235 -0.0344478 -0.033914566 0.016106926 -0.012832217 0.012287106
-0.5403719 -0.2910708 0.02436121 0.081288844 -0.17843397 0.08931598 0.08829821 -0.045859203
-0.012661063 -0.18037812 0.1870745 -0.29082865 -0.11137728 -0.20812438 0.07498353 0.09450521
-0.18083723 -0.015269856 0.33140492 -0.20685405 -0.019054167 0.010572523 0.016592093 -0.025591552
0.0015706904 0.029177736 -0.14890644 0.10410978 -0.14311653 0.028864933 0.22437772 -0.18306771
0.06691294 0.1357206 -0.01959567 0.15683708 -0.009547092 0.094630964 0.01357459 0.020972673
-0.03336478 -0.08639896 0.024158703 0.05061505 0.08717633 0.06440091 0.1307931 -0.057140335
-0.19391531 -0.114836924 -0.0044522583 -0.019759482 0.025335226 -0.0058371294 -0.20953126 0.4517919
-0.5822524 0.22173871 -0.08844585 0.013479594 0.024868816 -0.112101175 -0.01991177 -0.04637463
-0.06831159 0.050924618 0.0047966037 -0.08513739 -0.0729882 -0.13425806 0.022201473 0.070142664
0.0017275448 -0.0044677514 0.06485173 -0.13372426 -0.018012276 0.08020519 0.43925261 -0.007365469
-0.031895936 -0.24833375 -0.28747204 -0.05852686 0.015510594 -0.06321845 -0.17497319 -0.13100949
-0.039058123 -0.063411005 0.0139060775 -0.053337988 -0.11364695 -0.11322647 -0.09876377 -0.055428658
-0.07287502 -0.04196648 -0.0029070852 -0.0005535545 0.063075654 0.007152346 -0.04480047 -0.12645322
-0.1005714 0.031981554 -0.06237467 0.25203103 -0.029214116 0.018780585 0.1566631 -0.28203055
-0.16829652 -0.016739924 0.039552715 -0.11947351 -0.055751525 0.004872166 0.004836663 0.019762293
-0.115870014 -0.1156669 -0.09925031 -0.038501993 -0.0042810463 0.012481506 -0.020539708 0.06572961
0.029469937 0.0579037 0.055151228 0.015211192 0.06650006 0.19495636 0.028995356 -0.27501673
-0.0063956473 0.8430366 0.016727557 -0.056337148 0.14110473 -0.027354 0.008172748 -0.02492293
0.0030299083 -0.0017821507 -0.02082562 -0.02470796 -0.09268926 -0.10809081 -0.032253657 0.03782592
0.08457515 0.042291492 0.011481476 0.01828321 0.033828262 0.06518908 0.045284245 0.03866741
0.013273167 0.15191394 0.28471676 0.35792577 0.6111241 0.29928666 -0.17492436 0.062063266
-0.07732772 -0.024449168 -0.0044866875 -0.012152087 -0.023694567 0.015433404 0.02553013 -0.0038186412
-0.035441566 -0.026124489 0.0063850633 0.08498109 0.08699943 0.050381403 0.006533482 -0.034670994
0.004497398 0.036469057 0.099407636 0.03142077 0.14794499 0.0010395504 -0.013727145 -0.01943402
0.2713992 -0.04947722 0.019821564 -0.0047447006 -0.09249466 -0.076804966 -0.015761342 -0.050287094
0.01044906 0.020648414 0.01884495 -0.0005128306 -0.020799736 -0.05663272 0.015198343 0.051150635
0.079765774 0.0571982 -0.02216117 -0.06068421 -0.018973565 0.05211388 0.042109296 0.069077656
0.103026055 0.062097378 -0.07717824 0.3916714 -0.048393153 0.02845035 -0.030667031 -0.09459563

encode.fc1.bias f4 [64]
00000000: 77b9 01bf 4e20 bdbd e315 bdbd 1f47 1040
00000010: 2ff1 3e3d 026b 5dbe 05c7 453e 7833 943f
00000020: a67d 6b3e 353a d6be 9661 863c 6dbc 693e
00000030: 86da 7d3e 5092 68be 8925 1e3f 8e6c f8bc
00000040: 077f 4ebe cf9e 9e3e ac20 223f 4854 08bf
00000050: 29db a0be f8b4 43be aaa0 b4bf 04df c83e
00000060: 6b5f 163f 8487 473c c7dc a7be bb35 16be
00000070: 53d6 c53e e729 cfbf d3c9 863e 75d1 1a3e
00000080: cbc3 433f 1e4b fd3d 3dcd 73be 0340 623f
00000090: c602 063a af89 d4bf cc01 9abe bc0c f13c
000000a0: bd30 20be b5f6 34bd 7d5e f53f 8015 0c3f
000000b0: 2575 8f3e a3f4 073e 1a16 61bd 7684 273e
000000c0: fee0 083f 1bf9 9f3e e9db 2dbf 8e4b 273d
000000d0: 0039 17be ecac 9e3f bb6a ac3d 0667 4a3e
000000e0: a428 55bf 40e9 e3bf fee5 2cbf adb1 0cc0
000000f0: bf99 293e 6378 0c3e 1471 923e 9a10 cebd
-0.5067362 -0.09234677 -0.0923269 2.254341 0.04661673 -0.21622851 0.19314201 1.1578207
0.2299715 -0.41841283 0.016403954 0.22825785 0.24790391 -0.22712064 0.61776024 -0.0303252
-0.20165645 0.30980536 0.63331103 -0.53253603 -0.31417206 -0.19112003 -1.4111531 0.39232647
0.58739346 0.012178306 -0.32785627 -0.14668934 0.3864008 -1.6184663 0.26325855 0.15118964
0.7647063 0.12367843 -0.23808761 0.88378924 0.00051121076 -1.6604518 -0.30079496 0.029425018
-0.15643592 -0.04418059 1.916946 0.54720306 0.28019062 0.13276915 -0.05495272 0.16359124
0.5346831 0.3124474 -0.6791368 0.04084354 -0.14767838 1.2396522 0.08418795 0.19765863
-0.8326514 -1.7805557 -0.6753844 -2.1983445 0.16562556 0.13717799 0.28601897 -0.1006176

decode.fc1.weight f4 [784, 64]
00000000: 5f8f d8be 74ec e8be 625f 06bf 4a16 10bf
00000010: 8f69 18bf 43ed 0dbf 2c00 1dbf 473e 0ebf
00000020: 8c14 ccbe 6ba6 23bf fd1e 11bf 4238 3cbf
00000030: bf56 0dbf 694d 0bbf f38f 02bf bfda 24bf
00000040: 940a 2ebf a418 2ebf a553 34bf 6444 f6be
00000050: a57e ecbe ccdc 08bf 8817 12bf 4e51 edbe
00000060: c7e2 2ebf ccdd dfbe 9ec3 f3be 2528 35bf
00000070: 7cde d9be 61b5 e8be cd57 08bf ef28 f3be
00000080: 35dd e1be 6464 d2be 579c 2dbf 8d77 26bf
00000090: 0dd5 03bf 203e 1dbf f186 1cbf c8fe 0dbf
000000a0: 3f98 2fbf 2fff 06bf 2331 35bf 0d4e e2be
000000b0: 012b 19bf 3a83 f3be f507 cebe 9d21 eabe
000000c0: 04b3 32bf b447 f9be 391d 05bf 5389 17bf
000000d0: 5dd3 e4be 8672 3fbf dad4 29bf a935 06bf
000000e0: d8d3 09bf 0feb f6be eb44 24bf 2f3f d3be
000000f0: 2eb0 d8be 2255 2dbf bb48 3fbf ac30 07bf
00000100: 1c01 1ebf f218 05bf 3046 d8be d1b0 d1be
00000110: 103d 18bf 10dd 06bf f96c 1fbf 68ff f4be
00000120: baff 01bf d8db 46bf 5908 0bbf 9a26 09bf
00000130: 0059 0dbf 32d0 13bf a352 ffbe bf59 26bf
00000140: adc7 30bf 43db f1be ebdc 24bf 7f6d 04bf
00000150: a484 0abf deaa 1bbf 23d7 12bf 465c d9be
00000160: eb1c 05bf 7465 17bf 0b07 1cbf a133 2cbf
00000170: beb9 e4be 1906 d5be dc0e 3ebf e6b9 14bf
00000180: 684f 09bf 0b51 04bf 3d3d 23bf a6a5 28bf
00000190: 8fd2 1fbf d0a4 d4be 5f5b 25bf b2d4 16bf
000001a0: e1fc 22bf ac41 05bf 72a0 20bf 0911 16bf
000001b0: 3e8b 1abf 2db7 1dbf d0a8 e4be fabc 1dbf
000001c0: a960 17bf 25bd 24bf 29d0 04bf 359c fdbe
000001d0: f200 22bf bdf9 14bf cb01 30bf 9c17 09bf
000001e0: 30ef d7be a356 d9be 8f81 02bf 1f00 00bf
000001f0: 7d5a ccbe 55c8 06bf 15a4 2abf e105 efbe
00000200: 811e f9be 48ab 1abf 23c9 edbe 28b9 17bf
00000210: 97da 27bf 1851 02bf 3d7c f1be f00d 03bf
00000220: 1348 d5be c366 17bf 366a f7be 1e83 1dbf
00000230: 6bf9 fabe 4ff3 10bf 864e 10bf 3f1c 31bf
00000240: 2259 16bf 0786 15bf b90d 2fbf f7de 0abf
00000250: 84b9 04bf 2ba7 18bf 86e0 04bf d13c e5be
00000260: fb7d f3be b6bf e3be eacc 1bbf f75d 05bf
00000270: a83f cdbe 5cb4 1cbf a69c 15bf 3a23 23bf
00000280: 9464 f6be d50c 19bf 7cf3 f8be abab 04bf
00000290: d127 11bf 675b 20bf e04c 03bf 68fc 19bf
000002a0: 28b6 28bf 124a 02bf 26f1 4ebf bb22 ebbe
000002b0: 53e7 2abf a500 1dbf de3c dcbe eb6e 1abf
000002c0: 6add 15bf 74dd f3be 61bb f9be f321 18bf
000002d0: 7e6b 19bf c412 13bf 32d5 00bf 102c 07bf
000002e0: da36 ffbe 7d19 debe b3cf 23bf 08b1 1fbf
000002f0: 5b6d 07bf ca7d 16bf 22d7 19bf 6e36 21bf
00000300: a71b cebe 729f 0fbf cd2f 16bf ed0a c6be
00000310: 3e70 ddbe 49e2 0abf d25c 10bf 08e3 28bf
00000320: e2d6 07bf 59ee 2ebf ad91 f6be 6e27 01bf
00000330: bbab f9be a29a d2be e6f7 1cbf 96ed 0dbf
00000340: 2894 21bf 3bb8 2ebf 4973 43bf d591 15bf
00000350: a295 17bf 4f75 04bf 526c fabe 5307 08bf
00000360: 4338 2cbf 92b1 0bbf 44d5 0ebf 8de9 31bf
00000370: 0648 12bf a886 0cbf 5e00 07bf 1e26 01bf
00000380: 38ac e3be dfdd debe 1976 1ebf ad31 09bf
00000390: 49bd 16bf 4c81 e1be 69b4 2ebf 150b 1bbf
000003a0: d15f 1abf 8e2c 14bf a1f6 24bf 51eb 14bf
000003b0: fcaa 0dbf de09 1dbf 754a 01bf 99cf 28bf
000003c0: 97e3 2fbf f721 02bf 120d 01bf 0c6a 28bf
000003d0: 829a 07bf 6b8f 0cbf 2ed0 2bbf e93b d8be
000003e0: d80e fabe c3d5 d6be 8ee4 f9be 6a64 00bf
000003f0: e7f5 10bf 46e6 0ebf 7841 25bf 0e4a d6be
-0.42296883 -0.454929 -0.5248929 -0.5628401 -0.5953607 -0.5544016 -0.6132839 -0.5556378
-0.39859426 -0.6392581 -0.5668791 -0.7352334 -0.5521049 -0.54414994 -0.510009 -0.6439628
-0.6798489 -0.6800635 -0.7044013 -0.48099053 -0.46190372 -0.5346191 -0.57067156 -0.46351093
-0.68314785 -0.43723905 -0.47610182 -0.7076438 -0.42552555 -0.4545088 -0.53258973 -0.47492167
-0.4411408 -0.41092217 -0.6781668 -0.6502617 -0.51496965 -0.6142292 -0.61143404 -0.5546689
-0.68591684 -0.5273313 -0.707781 -0.44200173 -0.59831244 -0.47561055 -0.40240446 -0.4572877
-0.69804406 -0.48687518 -0.51997715 -0.59193915 -0.44692507 -0.74784124 -0.6634041 -0.5242563
-0.5383887 -0.4822621 -0.6416766 -0.41259143 -0.42321914 -0.6770803 -0.7472035 -0.5280864
-0.6172044 -0.5199119 -0.4224105 -0.40955213 -0.59468174 -0.52681065 -0.62275654 -0.4785111
-0.5078083 -0.77679205 -0.5430961 -0.53574526 -0.5521393 -0.57739556 -0.49867734 -0.6498069
-0.6905468 -0.47237596 -0.64399594 -0.5172958 -0.54108644 -0.608076 -0.5735952 -0.42453212
-0.5199725 -0.5913918 -0.60948247 -0.6726628 -0.4467296 -0.41606215 -0.74241424 -0.5809616
-0.5363679 -0.5168616 -0.6376532 -0.6587776 -0.6243066 -0.41531992 -0.64592546 -0.589183
-0.6366711 -0.5205333 -0.6274482 -0.58619744 -0.60368717 -0.6160763 -0.44660044 -0.6161648
-0.59131867 -0.6435111 -0.5188013 -0.4953324 -0.6328269 -0.5819357 -0.68752736 -0.5355165
-0.42174673 -0.4244891 -0.5097894 -0.50000185 -0.39912787 -0.5264943 -0.6665662 -0.46684173
-0.48656085 -0.60417604 -0.46442518 -0.592669 -0.65567917 -0.5090499 -0.471651 -0.5119314
-0.4165655 -0.59141177 -0.4832322 -0.61528194 -0.49018416 -0.5662126 -0.5636982 -0.69183725
-0.58729756 -0.58407634 -0.68380314 -0.5424647 -0.51845574 -0.5963008 -0.51905096 -0.44772962
-0.47557053 -0.444822 -0.6085955 -0.52096504 -0.40087628 -0.61212707 -0.5844215 -0.63725626
-0.4812361 -0.59785205 -0.48623264 -0.51824445 -0.5670138 -0.6263947 -0.51289177 -0.60150766
-0.6590295 -0.5089427 -0.80836713 -0.45924935 -0.6675922 -0.6132911 -0.43015188 -0.603255
-0.58540976 -0.47629893 -0.4877577 -0.594268 -0.59929645 -0.5745051 -0.5032531 -0.5280161
-0.49846536 -0.4337882 -0.639888 -0.62379503 -0.5290124 -0.5878569 -0.6009389 -0.6297368
-0.40255472 -0.5610267 -0.5866669 -0.3868021 -0.43249696 -0.54251534 -0.5639163 -0.6597142
-0.5306226 -0.6833244 -0.48158017 -0.5045079 -0.48763832 -0.411336 -0.61315763 -0.5544065
-0.63116693 -0.68249863 -0.76347786 -0.5842565 -0.59212697 -0.517415 -0.48910767 -0.53136176
-0.6727335 -0.54567826 -0.5579417 -0.69496995 -0.5714115 -0.5489297 -0.52734935 -0.5044879
-0.4446733 -0.4352865 -0.6189895 -0.53591424 -0.58882576 -0.44043958 -0.68244034 -0.60563785
-0.60302454 -0.57880485 -0.64438826 -0.58171564 -0.55339026 -0.6134318 -0.5050424 -0.6594177
-0.6870665 -0.50833076 -0.5041057 -0.65786815 -0.52970135 -0.5490634 -0.6711453 -0.42233208
-0.4883945 -0.41959962 -0.48807186 -0.5015322 -0.5662522 -0.5582012 -0.6455302 -0.41853374

decode.fc1.bias f4 [784]
00000000: 02cf 25bf fb37 1abf 44f4 2bbf 1bcc 34bf
00000010: 3bea 22bf 7163 13bf df69 15bf eccb 2bbf
00000020: a31c 26bf ccb2 12bf e888 3bbf 1ffb 3abf
00000030: 6e72 60bc aff4 933d 31d0 bf3d 75c1 b5be
00000040: c777 2dbf 85e5 1dbf 2c55 01bf f60a 1cbf
00000050: bf72 3abf d74f 3cbf fdf4 39bf 670c 0ebf
00000060: 99e6 07bf 240f 34bf a242 1dbf bd61 22bf
00000070: 19a0 03bf 2cb1 23bf 01c0 2cbf 4e61 32bf
00000080: 278a 83be 1b88 65bd 229e ec3c 5853 3c3e
00000090: 184f 8ebc 0349 653d 3617 ff3d 99b5 803d
000000a0: 7546 903e 3d93 683e 90b6 a03e 4f80 af3e
000000b0: 8672 fa3d 1e3d 853d 898a 0e3e 388e 463e
000000c0: b256 663e 27b7 7e3e 2d5c 413d 586c 2abe
000000d0: 9da3 1ebf 5a8d 28bf e9ed 26bf 54c5 3ebf
000000e0: f7c5 1bbf 5e0a 2ebf d20f 17be ddb6 b0be
000000f0: 60c6 72be 2f71 ca3b 103e b63e 8802 bb3e
00000100: e7b7 0b3e 381f 723e cd12 813d b6b1 dd3c
00000110: 916f 19be b380 103d 96fe 32be 158d 46be
00000120: d5b4 debe 7d61 aabe cefd 89be 6ee8 acbd
00000130: 1e4e 93be a9d2 80be 1372 57bc 4b3d d53d
00000140: c6af 863e b41e af3d 729d 29bf a313 22bf
00000150: e21c 3abf 3fb9 41bf c155 27bd ee24 21be
00000160: d763 f5bd 6904 983e cde7 983e 2ab1 e03e
00000170: 1a1c 913e 31be c43d 272a 913d 4055 09bd
00000180: 9e2c 5fbe ce58 a4be 2a03 05bf 0c5a a0be
00000190: 1b5b a3be 81f0 afbe 0b11 16be 5b93 46be
000001a0: a99a e0be b0a4 78be 3d98 31bd 4787 493e
000001b0: 65f2 8a3e 7629 8d3e 2a79 f4bd 5333 33bf
000001c0: ab97 3ebf 2318 97be 4aa4 f6bd 293e 73bc
000001d0: d7fa c53e 6e12 cf3e 99f2 b53e 2543 bc3e
000001e0: ad29 873e af97 103e 936b 8abd 7447 c3bc
000001f0: 54db ce3c 3477 70be a553 f1be c3cb 83be
00000200: f35d 90bd 0812 48be b2e5 b4be d925 f0be
00000210: 63fb 1dbf 4344 82be b5f1 9e3d ba2d 403e
00000220: 2fed 7e3e 6d81 893d 8552 063e e558 45bd
00000230: 8d1e 33bf ef59 1dbf 41b7 11be f363 913e
00000240: 7bb7 e53e c1fc 383f ff6a 3a3f 01d4 db3e
00000250: f9d7 843e 746c 78be 478a 5abd 7da2 11be
00000260: 71e8 22be adf3 c9bd 05ba e3bd c5d1 47be
00000270: 8ee6 0bbe 08d9 92bd f416 0ebe 946f 48be
00000280: b725 95be 7d37 c6be 1388 2cbe 44b3 9d3d
00000290: 5f40 663e 7263 703e c404 793e 83e7 6a3d
000002a0: 8687 2abf 718e a4be 6123 963d 12c6 a33e
000002b0: 0f38 293f 15a2 0f3f bb88 da3e 4009 9a3e
000002c0: cad2 5a3d 147d 4ebd 7c29 10be 78e0 143c
000002d0: 4bd1 f1bc 8b35 71be 1a94 8ebe 12af e1be
000002e0: f4dd 0abf 3fb8 81be 8dfb cd3c 4ded 84bd
000002f0: a920 74be df5a 4ebd 846b cebc ee9b 4b3e
00000300: 95f2 7b3e c938 233e 9308 643e 7671 8b3e
00000310: 80a0 ddbd ac9c 6e3d 2d4a a33e 68e6 863e
00000320: 7f59 e93e a8cd 5f3e 1232 a53d dff4 2d3c
00000330: b389 2e3a 3d8e 0b3d 37b0 043e f3ea 573b
00000340: e8a6 f2bd 77e3 96be e6b2 9fbd 74e2 7cbe
00000350: 1ef6 f4be 4241 6abe 72e7 1dbd d222 313d
00000360: 08f4 1fbe dca3 38be 67c5 b93d efec 253e
00000370: e532 adbc 97d8 5a3d ec9c 6a3e 1233 a63e
00000380: 9d46 19bd bd7b d03e 1a07 243e 322f 393e
00000390: 42ea 683e 2b21 fa3d feef c73d 5787 463e
000003a0: 3ff0 5d3e 7073 6d3e eac8 123e 167b 86be
000003b0: d168 a1be b969 4cbe a1e4 1b3c 16aa dabd
000003c0: fb79 51bd 23ee 49bd 84dc b7bc b167 6abc
000003d0: 4b95 bfbd d994 81be b0a4 6fbe 8b24 bdbc
000003e0: e38d 5abe 7d5e 30bd 148e 783e edd0 ba3e
000003f0: ac97 c43d 6432 8c3e af48 043e dbf5 ce3d
-0.64768994 -0.6024167 -0.67169595 -0.7062394 -0.6363866 -0.5757361 -0.5836467 -0.67108035
-0.64887446 -0.5730407 -0.7325578 -0.7303943 -0.013699157 0.07224404 0.09365881 -0.35499159
-0.6776089 -0.61678344 -0.50520587 -0.60954225 -0.7283134 -0.73559326 -0.7263945 -0.55487674
-0.5308624 -0.703356 -0.614298 -0.63430387 -0.51416165 -0.6394222 -0.67480475 -0.69679725
-0.2569134 -0.056038003 0.028883997 0.18391168 -0.0173717 0.055977833 0.12455599 0.06284637
0.28178754 0.22712417 0.31389284 0.3427758 0.12228875 0.06505798 0.13920034 0.1939019
0.22494009 0.24874555 0.047207046 -0.16642892 -0.61968404 -0.65840685 -0.6520677 -0.7451985
-0.60848945 -0.6798457 -0.14752129 -0.34514514 -0.23708487 0.0061780433 0.35594225 0.3652537
0.13644372 0.23644722 0.06302414 0.027062278 -0.14983965 0.035278987 -0.1747993 -0.19389756
-0.4349734 -0.33277503 -0.2695145 -0.0844277 -0.28770536 -0.2516072 -0.013149756 0.10412081
0.2630598 0.08550778 -0.6625587 -0.63311213 -0.7270032 -0.7567329 -0.040853266 -0.15736744
-0.119819336 0.29690865 0.2986435 0.43885165 0.28341752 0.09606589 0.07088118 -0.033528566
-0.21794364 -0.32099003 -0.5195795 -0.313187 -0.31905445 -0.34363177 -0.14654939 -0.19392149
-0.43867996 -0.24281573 -0.043358076 0.1968051 0.27138057 0.27570695 -0.11937173 -0.7000019
-0.74450177 -0.29510602 -0.120430544 -0.014846363 0.38667938 0.40443748 0.3553665 0.36769977
0.26398984 0.14120363 -0.067587994 -0.023837782 0.025251068 -0.23482972 -0.47134128 -0.25741395
-0.070491694 -0.19538128 -0.35331494 -0.46903875 -0.6171171 -0.25442705 0.07760946 0.18767443
0.24895166 0.06714139 0.13117416 -0.04818048 -0.6996849 -0.6146535 -0.14230062 0.28396568
0.44866547 0.7226067 0.72819513 0.42935184 0.25946024 -0.24260122 -0.053354528 -0.1422214
-0.15908982 -0.098609306 -0.11119465 -0.19513614 -0.13662168 -0.07170302 -0.13875943 -0.19573814
-0.29130337 -0.3871421 -0.16848783 0.07700208 0.22485493 0.23475435 0.24318224 0.057349693
-0.6661304 -0.32139924 0.07330967 0.31987053 0.66101164 0.5610669 0.42682442 0.30085182
0.05342368 -0.050412253 -0.14078325 0.009086721 -0.029518744 -0.23555581 -0.27847368 -0.4407888
-0.54244924 -0.2533588 0.025144363 -0.06490574 -0.23840584 -0.05037963 -0.025197752 0.19883701
0.24604256 0.1593963 0.22268896 0.27235 -0.108216286 0.058254883 0.3189253 0.2634766
0.45576093 0.21855795 0.08066191 0.010617464 0.0006658092 0.034071196 0.12957846 0.0032946437
-0.11848241 -0.29470417 -0.07797794 -0.2469576 -0.47844023 -0.22876456 -0.0385508 0.043246098
-0.15620434 -0.18031257 0.09070855 0.16203664 -0.021142432 0.053429212 0.22911423 0.3246084
-0.037420858 0.40719405 0.16018334 0.1808441 0.22745612 0.122133575 0.09762572 0.19387566
0.21673678 0.23188567 0.14334455 -0.26265782 -0.3152528 -0.19962205 0.009514959 -0.106769726
-0.05114172 -0.04929937 -0.022444017 -0.0143069485 -0.09354647 -0.25308874 -0.23402667 -0.023088714
-0.21343188 -0.04305886 0.24272949 0.36487523 0.095992416 0.27382195 0.12918352 0.10105487
