code/ae.model (torch_old, 934865 bytes, 4 tensors)

encode.fc1.weight f4 [28, 4096]
000000 58 94 78 bb 68 16 c2 bb 40 13 b2 b9 3c e0 d5 3b
       -0.0037930217 -0.005923081 -0.00033965148 0.006526975
000010 92 44 39 3c 7c 01 57 3c 80 e3 1d bb 2c 13 7c bc
       0.011307852 0.0131229125 -0.00240919 -0.01538543
000020 c2 bd 30 bc 54 ea 33 bc ea 20 24 3c c8 7e 6d 3c
       -0.010787429 -0.010981161 0.010017613 0.014495559
000030 72 55 24 3c 90 74 1a 3b d8 58 35 3c 74 1c 9f bb
       0.010030137 0.0023568012 0.011068545 -0.004855687
000040 44 3d 2c 3c 28 34 2a 3b b8 6d 51 3c 82 12 32 3c
       0.010512654 0.002597103 0.012782507 0.01086867
000050 80 c7 55 b9 50 f2 2b 3c ba b6 5e 3c 36 09 5b 3c
       -0.00020387582 0.0104947835 0.01359337 0.013368895
000060 78 44 f7 bb 00 ed 53 3a ef a9 4e bc 96 36 04 3b
       -0.007546004 0.0008084327 -0.0126137575 0.0020174137
000070 02 4b ac bb db cf 2f bc da 81 65 3c c1 b6 eb 3b
       -0.005257965 -0.010730709 0.01400801 0.007193417
000080 98 31 cd b8 90 cb 9b 3a a6 e3 6f 3a e0 a5 29 3c
       -9.784399e-05 0.0011886228 0.0009151049 0.010354489
000090 5e 5c 57 3c ee 30 32 bc 34 f0 a7 bb a6 d9 5b 3c
       0.013144581 -0.010875924 -0.00512507 0.013418591
0000a0 c8 d1 42 3c 78 04 0e 3c 14 5c 20 3c be 65 23 3c
       0.011890836 0.008668058 0.009787578 0.009972988
0000b0 92 19 7f bc 08 1a 64 3c aa 16 05 bc 00 c3 53 3b
       -0.015570061 0.013922222 -0.008123079 0.0032312274
0000c0 78 73 65 3b 2e 54 1e bc 1c f5 4d 3c 00 5c 95 3a
       0.0035011452 -0.009663625 0.012570646 0.0011395216
0000d0 ba 91 45 bc 58 fa 94 3b 1c e5 9d bb 80 c8 7b 3c
       -0.01205867 0.004546445 -0.0048185717 0.015367627
0000e0 10 0e 7d 3b aa 4c 06 3c d8 b2 0d 3b b4 d0 50 3c
       0.0038613118 0.008196989 0.0021621492 0.012745071
0000f0 f2 c8 37 bc 00 f2 d7 39 04 44 d3 3b 30 c4 44 3b
       -0.011217343 0.000411883 0.006447317 0.0030024163
000100 00 5c 22 39 60 f2 b6 3a 48 d2 7e bb c4 a4 b9 bb
       0.00015483797 0.0013957731 -0.0038882662 -0.0056653935
000110 00 ad 5f 3c 94 5b 0d 3c a2 5d 22 bc c6 bd 47 bc
       0.013652086 0.008627791 -0.009910019 -0.012191242
000120 cd b6 16 3c 15 24 69 3c 24 b7 ef ba 9d f4 c8 bb
       0.009198857 0.014229794 -0.0018288833 -0.006132676
000130 04 1f d5 bb c0 e0 4a ba 50 2f 01 bb 57 fa 43 bc
       -0.0065039415 -0.0007739179 -0.0019712038 -0.011961541
000140 7a 46 26 b8 96 20 12 3c 52 98 d2 3a e0 92 36 3c
       -3.964312e-05 0.008918902 0.0016067124 0.011143416
000150 7c 28 77 3c 52 30 3f 3c 54 36 6b 3c 1d 45 55 3c
       0.015085336 0.011669235 0.014356215 0.013016966
000160 6a 3d 4c bc 5a 51 f5 bb b2 55 e3 3a 53 5a 30 bc
       -0.012465814 -0.0074865045 0.0017344265 -0.0107637225
000170 1f 61 51 bb 19 d2 44 bc 7e 7a 92 3c 8f 7a e3 bb
       -0.0031948758 -0.012012982 0.017880674 -0.0069421004
000180 45 1e 66 3b 34 70 9b bb 0c ca 2a bc da c5 ed bb
       0.0035113257 -0.0047436003 -0.010424148 -0.0072562518
000190 44 71 80 bb f7 ac 58 3c f7 ad 63 3b 47 c7 c9 3a
       -0.0039197523 0.013224832 0.0034741142 0.0015394472
0001a0 6f 61 92 3c ac 47 90 3c f0 6d 21 3c 70 1e f8 bb
       0.017868726 0.0176123 0.009852871 -0.007571988
0001b0 8c 34 0a 3c ab a1 33 bc f7 01 5c bc 5e 16 af 3b
       0.00843538 -0.010963838 -0.013428203 0.0053432425
0001c0 be cd 29 bb f5 17 18 3c 13 72 50 bc b1 d7 97 3b
       -0.0025909985 0.009283056 -0.01272251 0.0046338667
0001d0 3c de 00 bc df fb c4 bb 3c 42 41 3c cf e4 11 bc
       -0.007865485 -0.0060114707 0.011795577 -0.00890465
0001e0 0e 68 14 3c 32 bf 21 bc 4e a7 25 bc f8 e0 35 bc
       0.009058012 -0.009872245 -0.010110689 -0.011101
0001f0 50 bf c9 3b 6c 95 10 3c 50 26 0d 3c 80 05 3c bc
       0.0061568394 0.008824687 0.008615091 -0.011475921
000200 20 ff 5f 3a 38 1a 69 3c c0 df ee bb 40 be 1c 3c
       0.00085447915 0.014227442 -0.0072898567 0.0095668435
000210 d0 f1 37 bc c8 06 e2 3b 50 47 7a 3b 58 6e 58 bc
       -0.011227086 0.006897781 0.0038189478 -0.013209902
000220 72 79 3e 3b d1 b4 c0 3b 5b 05 58 bc 81 64 ea 3a
       0.0029064086 0.00588093 -0.013184871 0.0017882736
000230 83 e0 21 3b 90 f0 11 3b 10 11 f9 3b 14 17 2b 3c
       0.002470047 0.002226863 0.007600911 0.010442514
000240 5a 29 89 3b 5c 8a e4 3b 80 c7 42 3c 9d 97 19 3c
       0.0041858377 0.0069745015 0.011888385 0.009374526
000250 ed a7 bd bb 56 9e 33 bc 71 d5 0e bc 20 21 ea bb
       -0.0057878406 -0.010963043 -0.008717881 -0.007145062
000260 6b dc f9 3b 12 d5 5c bb 89 27 c1 3b 6f fe a6 3b
       0.007625153 -0.0033696336 0.0058946055 0.005096249
000270 e9 20 76 3b bb da 96 3c 1b 42 bc 3b 7e 02 78 3c
       0.0037556237 0.018414846 0.005745185 0.015137313
000280 d9 ce 32 3c bf 2f 67 3c ec 9f 8b bb 87 33 8a 3b
       0.010913574 0.014110505 -0.0042610075 0.0042175683
000290 c7 fa e5 3b bb d0 6d 3b 9f f7 bb 3c bf 52 be 3c
       0.0070184204 0.0036287743 0.022945223 0.023232816
0002a0 16 2a a4 3c 3e cc 99 3c 3c 6f 14 3c 0a 0e 51 3c
       0.0200396 0.018774148 0.0090597235 0.012759695
0002b0 bc 65 47 3b 85 2e 0f bc f2 7f 71 bc de 0c 96 3b
       0.0030425629 -0.008739118 -0.014739977 0.0045791706
0002c0 6b 7b 0f 3c c4 0c 67 bc b3 7e 76 ba 36 d9 b0 3b
       0.0087574525 -0.014102165 -0.0009403035 0.0053969873
0002d0 3f 9c 7d bc 60 22 ec 3b 5d be fc bb 7a 7f 49 bc
       -0.0154791465 0.0072062463 -0.0077131228 -0.012298459
0002e0 98 4e 37 3c c0 bb 32 3b 62 9e 6c 3c 20 ac ea 3b
       0.011188172 0.0027272552 0.014442058 0.007161632
0002f0 d6 4b 20 bc a0 b3 81 3b 80 df 16 b9 94 0a f4 3b
       -0.009783706 0.0039581805 -0.00014388375 0.00744755
000300 0e 78 14 3c 34 f5 2f 3c 38 1a 74 3c 18 b4 ca bb
       0.009061826 0.010739613 0.014898829 -0.0061860196
000310 a2 40 3d bc 99 63 8e 3b 06 5b 4b ba 58 58 1b bc
       -0.011551054 0.004345369 -0.0007757399 -0.009481512
000320 05 e0 7b 3c 23 42 25 3c bb 50 f2 3b 4e d4 89 bb
       0.015373235 0.010086569 0.0073948777 -0.004206217
000330 e2 b9 62 bc 67 9b 49 bc ec 53 31 bc 5c 15 30 3b
       -0.013838263 -0.012305117 -0.010823231 0.00268682
000340 05 28 4f 3b d2 74 eb 3b 85 12 c8 ba e0 5d 1d 3c
       0.0031609547 0.007185557 -0.0015264308 0.009604901
000350 4f 79 a6 bb 8f da c8 bb f8 65 f7 ba 83 fd 9c bb
       -0.005080379 -0.00612957 -0.0018874994 -0.004790963
000360 02 6f cc bb 8b cb a4 3c fd b9 d4 3b c4 18 7e 3b
       -0.006238819 0.020116588 0.006491898 0.0038772086
000370 6a f8 98 3c 3b d8 b4 3c 5f ec 94 ba cb be d8 3c
       0.01867314 0.022075763 -0.0011361948 0.026458165
000380 d0 b5 23 3c 24 db 9c 3c f6 18 15 3b ad 2b b4 3c
       0.009992078 0.019147463 0.0022750474 0.021993482
000390 3d a1 36 3c a5 24 1e 3d 86 80 c0 3c 99 86 ce 3c
       0.011146841 0.038609166 0.023498785 0.025210666
0003a0 eb 88 9c 3c bb 33 8a 3c 66 43 d5 bb 77 9c 13 3b
       0.019108256 0.01687037 -0.0065082787 0.002252368
0003b0 b8 bb ba 3a 8c 86 56 bb fd a7 06 bc 45 e6 52 bc
       0.0014246618 -0.0032734005 -0.008218762 -0.012872283
0003c0 f8 d2 8d bc f5 19 eb 3b 8b f1 a5 3b ea af 18 bc
       -0.017312512 0.007174725 0.0050641946 -0.009319285
0003d0 e3 eb ea 3b 09 f0 b0 3b 2b 20 22 bc 63 29 e8 3b
       0.007169233 0.005399708 -0.009895365 0.007085012
0003e0 e2 64 62 3c bc 70 49 3c df 68 55 3c f5 dd f7 3a
       0.013817998 0.012294944 0.0130254915 0.0018910753
0003f0 20 64 95 bb 3a 45 7c bc c0 bb 36 ba e0 06 c9 ba
       -0.004559055 -0.015397364 -0.0006970726 -0.0015337132

encode.fc1.bias f4 [28]
000000 ca 44 f3 3d f6 9e 0e 3e ac e6 04 3e db 8d a3 3f
       0.11878355 0.13927826 0.1297862 1.2777666
000010 d2 5b fe 3d f7 21 eb 3d 83 19 08 3e c5 99 f1 3f
       0.12419857 0.11481088 0.13290982 1.8875052
000020 48 a0 0d 3e a8 31 b5 3e fe d6 0c 3e f1 aa df 3d
       0.13830674 0.35389447 0.13753888 0.10921276
000030 2f 20 22 bf 8c 0f ff 3d 69 21 0b bf bc 8b 06 3e
       -0.6333036 0.12454137 -0.54347855 0.13139242
000040 6a 69 e8 3d be 20 e5 3d b4 eb f6 3d 19 cb f8 3d
       0.11348231 0.11187886 0.120566756 0.12148113
000050 8e 1c f6 3d c6 d4 f9 3d 95 2b 05 3e 2d 1e de be
       0.12017165 0.121987864 0.13004906 -0.43382397
000060 71 23 01 3e a7 4f 0c 3e 34 b9 f7 3d 64 b5 cd 3d
       0.12611176 0.1370226 0.120958716 0.10044363

decode.fc1.weight f4 [4096, 28]
000000 4e 28 f5 be 0c f0 28 bf 66 2c bd be b5 31 34 bf
       -0.47882313 -0.6599128 -0.36947936 -0.70388347
000010 ed 10 1d bf 81 fb c4 be a4 45 3c bf 83 ed 08 bf
       -0.6135395 -0.38473132 -0.73543763 -0.53487414
000020 80 57 28 bf 1a 95 fa be e5 c7 2e bf 96 6a 12 bf
       -0.65758514 -0.4894188 -0.68273765 -0.5719389
000030 9d 6f 31 bf 7b 0b 35 bf 03 0e ea be c0 a2 d1 be
       -0.69310933 -0.7072064 -0.45713815 -0.4094448
000040 b4 15 17 bf 05 5e fe be 71 50 0d bf 9c 5f 38 bf
       -0.5901749 -0.49681106 -0.5520087 -0.7202089
000050 ec dd c6 be 80 8b 0a bf 11 f7 ce be ec af 19 bf
       -0.38841188 -0.5411911 -0.40422872 -0.6003406
000060 1d a6 38 bf e9 44 04 bf b0 5f ee be 14 62 07 bf
       -0.7212847 -0.5166765 -0.4655738 -0.5288403
000070 24 01 2d bf 20 43 0a bf 75 9b e9 be 64 c9 f5 be
       -0.67579865 -0.54008675 -0.45626417 -0.4800521
000080 e8 77 04 bf ad fc 06 bf d9 db 08 bf 98 02 ef be
       -0.5174546 -0.527293 -0.5346046 -0.46681666
000090 ff f6 0d bf 82 96 f1 be a9 e1 32 bf 25 70 23 bf
       -0.5545501 -0.4718514 -0.6987558 -0.63842994
0000a0 2c 5c e7 be a9 d0 c9 be ce 6f 26 bf d9 53 0f bf
       -0.4518751 -0.39417008 -0.6501435 -0.55987316
0000b0 a4 56 0f bf 1e 5e cf be 74 52 19 bf 54 d7 01 bf
       -0.5599158 -0.40501493 -0.5989144 -0.5071919
0000c0 1e 13 40 bf 7d 8f fe be 13 77 d6 be 3e fd 32 bf
       -0.7502917 -0.49718848 -0.4188772 -0.69917667
0000d0 4f b6 0f bf 25 5a df be b9 88 31 bf 8f 3c 0b bf
       -0.56137556 -0.43623462 -0.6934925 -0.5438928
0000e0 d6 34 20 bf fa e7 d8 be 52 b3 b6 be 4b 99 f5 be
       -0.6258062 -0.42364484 -0.35683686 -0.47968516
0000f0 c1 21 27 bf d9 69 e5 be 77 a9 21 bf 70 6d a8 be
       -0.6528588 -0.44807318 -0.6314921 -0.32895994
000100 1f ec 06 bf cd 33 cc be b4 af 05 bf 2a 0a 03 bf
       -0.5270404 -0.3988327 -0.52221227 -0.51187384
000110 3b db ef be a0 10 37 bf be a4 3e bf 66 8e 27 bf
       -0.46846947 -0.7150974 -0.74470127 -0.6545166
000120 e0 89 22 bf 7e 49 21 bf 92 69 3f bf 4a 99 35 bf
       -0.6349163 -0.63002765 -0.7477046 -0.70937026
000130 7f 78 d8 be ad 3f 09 bf 1c ac d8 be 01 fa 11 bf
       -0.4227943 -0.53612787 -0.4231881 -0.570221
000140 f6 a7 0f bf 87 a6 06 bf 31 7e f5 be d3 94 1b bf
       -0.56115663 -0.5259785 -0.4794784 -0.6077396
000150 de 6f c8 be 66 bc f5 be f2 58 e2 be 12 75 f9 be
       -0.39147848 -0.479953 -0.44208485 -0.4872213
000160 86 81 32 bf 3f 00 23 bf d2 5a 32 bf e7 96 04 bf
       -0.6972889 -0.6367225 -0.6966983 -0.5179276
000170 1f a8 0a bf d7 58 12 bf e0 c6 fd be 0e 4a de be
       -0.5416278 -0.5716681 -0.49565792 -0.43415874
000180 6f d6 27 bf 84 c7 bc be 5b 71 e4 be 60 9f 08 bf
       -0.65561575 -0.36870968 -0.44617733 -0.53368187
000190 16 f4 1f bf 73 9a 1c bf 08 6e f5 be bf 9e 49 bf
       -0.6248182 -0.6117317 -0.4793551 -0.7875785
0001a0 fc 83 25 bf 21 ad f2 be d7 42 1a bf 49 5b 38 bf
       -0.6465452 -0.47397712 -0.6025824 -0.7201429
0001b0 98 fe 01 bf 85 d6 30 bf a3 62 2d bf 70 e6 4a bf
       -0.50779104 -0.6907733 -0.6772863 -0.7925787
0001c0 73 f5 1c bf 7f f4 0d bf f1 e2 f5 be 56 07 07 bf
       -0.61312026 -0.55451196 -0.48024705 -0.5274557
0001d0 aa 47 dd be 7b 52 1f bf 07 62 36 bf 43 bf df be
       -0.43218738 -0.6223523 -0.7124333 -0.4370061
0001e0 ec a9 1f bf 00 6f 21 bf 59 ab 9f be 9b f3 24 bf
       -0.62368655 -0.6306 -0.31185415 -0.6443421
0001f0 b0 fd ce be f4 8e bd be 0a 1e 09 bf 86 1c 1b bf
       -0.40427923 -0.37023127 -0.5356146 -0.605904
000200 48 ef 24 bf e5 0d 10 bf 9d ca 1f bf dd 42 48 bf
       -0.64427614 -0.562712 -0.6241854 -0.78227025
000210 8b 83 06 bf 43 3a 15 bf 11 fb 25 bf 5a 56 28 bf
       -0.5254447 -0.58292025 -0.6483622 -0.6575676
000220 53 b7 14 bf b2 4d 15 bf 24 60 bc be bf d1 21 bf
       -0.5809223 -0.5832168 -0.367921 -0.6321067
000230 fc 0f 3a bf 67 84 38 bf 33 ce 27 bf b2 56 29 bf
       -0.7268064 -0.7207703 -0.6554901 -0.6614791
000240 9b c0 f8 be c2 f4 fa be 57 c6 f4 be f6 86 07 bf
       -0.48584446 -0.4901486 -0.4780757 -0.5294031
000250 39 8d 2f bf 56 6e c7 be ff d9 04 bf d5 90 0c bf
       -0.68574864 -0.38951367 -0.51895136 -0.54908496
000260 13 a4 18 bf ba ae c2 be 7e 33 31 bf 77 e9 06 bf
       -0.5962536 -0.3802393 -0.69219196 -0.5269999
000270 cb 09 e3 be 19 17 1c bf b2 92 e3 be 55 f7 2a bf
       -0.4434341 -0.60972744 -0.44447857 -0.6678365
000280 83 74 df be 62 32 fa be b8 e5 1d bf ab 91 00 bf
       -0.4364358 -0.48866564 -0.6167865 -0.5022227
000290 58 19 19 bf 22 31 38 bf 78 1b 2b bf c3 1a 05 bf
       -0.59804296 -0.7194997 -0.6683879 -0.5199396
0002a0 70 22 fd be 42 b0 dc be 3e f8 2d bf 18 d1 c3 be
       -0.49440336 -0.43103224 -0.6795691 -0.38245463
0002b0 1f 03 e5 be 2e f2 a7 be ae 43 47 bf 60 db 19 bf
       -0.44728944 -0.32801956 -0.77837646 -0.60100365
0002c0 79 92 da be 4d 3c 12 bf 88 c6 1d bf d9 c1 11 bf
       -0.42689875 -0.5712326 -0.6163106 -0.56936413
0002d0 c1 d5 15 bf 62 04 18 bf b3 e2 2e bf f5 b5 21 bf
       -0.5852929 -0.5938169 -0.68314666 -0.6316827
0002e0 10 f3 27 bf aa 96 19 bf 23 97 3d bf d0 31 1d bf
       -0.6560526 -0.5999552 -0.7405874 -0.6140413
0002f0 27 a7 c4 be 68 7f 09 bf 39 44 14 bf cd 56 28 bf
       -0.38408777 -0.5371003 -0.579166 -0.6575745
000300 b2 57 d9 be 49 3f 01 bf 60 f7 0a bf 45 6c 44 bf
       -0.4244972 -0.5048719 -0.54283714 -0.76727706
000310 8d a8 41 bf 5d 29 2d bf de 01 14 bf ba fc d5 be
       -0.75647813 -0.6764124 -0.5781535 -0.41794378
000320 10 41 31 bf c0 eb cd be 7a 3c e2 be e9 66 ff be
       -0.692399 -0.40218925 -0.44186765 -0.49883202
000330 89 aa f3 be 8a 23 10 bf b2 ec 1a bf 58 fd 05 bf
       -0.47591045 -0.5630423 -0.6051742 -0.52339697
000340 ad 6b e6 be f4 e8 ca be e6 a5 00 bf e6 94 d2 be
       -0.45004025 -0.39630854 -0.5025314 -0.41129225
000350 47 13 0e bf 90 b3 23 bf 70 d6 42 bf 1a 63 00 bf
       -0.55498165 -0.63945866 -0.76108456 -0.50151217
000360 92 fc 18 bf 52 25 f1 be ae 76 27 bf b5 c9 d9 be
       -0.5976039 -0.47098786 -0.65415466 -0.42536703
000370 a8 df f2 be ab e9 e2 be 22 73 25 bf 5e 73 43 bf
       -0.4743626 -0.443189 -0.64628804 -0.7634791
000380 50 e0 24 bf 66 bb fb be 27 7c 05 bf 11 88 07 bf
       -0.64404774 -0.4916641 -0.52142566 -0.52941996
000390 f4 1a 13 bf 5e 7c 1e bf 1d 63 e0 be a4 87 03 bf
       -0.57463 -0.6190852 -0.43825617 -0.51378846
0003a0 4c 18 04 bf 81 52 08 bf 0f 58 af be 12 38 09 bf
       -0.51599574 -0.5325089 -0.3424687 -0.5360118
0003b0 48 c9 f1 be cf ee b4 be a3 9d 3d bf b5 8b c6 be
       -0.47223878 -0.35338446 -0.7406866 -0.38778463
0003c0 84 73 4a bf ae aa 02 bf d2 ef 46 bf b0 a7 42 bf
       -0.7908251 -0.51041687 -0.77709687 -0.7603712
0003d0 b0 97 e1 be 39 5b 3b bf 99 63 2e bf 97 7f 25 bf
       -0.4406104 -0.7318607 -0.68120724 -0.6464781
0003e0 19 99 26 bf 5d 5e 21 bf f7 c5 c3 be 06 6c 0e bf
       -0.6507736 -0.6303461 -0.38236973 -0.5563358
0003f0 d2 54 ff be 17 5d 28 bf 8a 68 0b bf 97 4c db be
       -0.498694 -0.65767044 -0.5445639 -0.4283187

decode.fc1.bias f4 [4096]
000000 55 09 08 bf 03 94 0a bf 59 1b b0 be 55 74 bd be
       -0.5313924 -0.541321 -0.34395865 -0.37002817
000010 70 55 13 bf 13 25 dc be f9 0d a3 be ca 3e fc be
       -0.5755224 -0.42997035 -0.31846598 -0.49266654
000020 8e 42 e2 be cb 53 0a bf 66 07 e5 be 98 43 ad be
       -0.44191402 -0.5403411 -0.44732207 -0.33840632
000030 fc 63 9f be cc 9c e7 be ab a6 9b be b2 d0 a9 be
       -0.3113097 -0.45236814 -0.30400595 -0.33167034
000040 77 98 ed be bd b0 d3 be f8 9b 11 bf 11 21 0f bf
       -0.46405384 -0.41345778 -0.56878614 -0.5590983
000050 7e de 8b be 97 75 cf be 40 93 06 bf d0 a3 03 bf
       -0.27318186 -0.405194 -0.52568436 -0.51421833
000060 93 72 c4 be 41 1d ce be 02 31 be be d8 00 7f be
       -0.38368663 -0.40256694 -0.37146765 -0.24902666
000070 a9 33 69 be 3f 56 ce be c9 a5 fe be 93 3e 98 be
       -0.22773613 -0.40300176 -0.4973586 -0.2973524
000080 c3 67 d8 be 7b 41 7f be ff 0e b7 be 62 ca ac be
       -0.42266664 -0.24927323 -0.3575363 -0.33748156
000090 fe 49 26 bf f9 91 02 bf 70 7b d2 be 12 e9 16 bf
       -0.64956653 -0.51003987 -0.411098 -0.5894939
0000a0 b9 20 b1 be 73 ed 05 bf 5d 89 b3 be 4c fb 81 be
       -0.34595278 -0.52315444 -0.35065737 -0.25387037
0000b0 0c a2 02 bf 24 2f 05 bf 3e 00 09 bf 16 30 aa be
       -0.51028514 -0.52025056 -0.53515995 -0.33239812
0000c0 99 ec 00 bf 01 7f a2 be 5a bd 76 be cc 07 dd be
       -0.5036102 -0.3173752 -0.2409567 -0.4317001
0000d0 f5 22 21 bf 4f 8d ac be cd 73 c5 be 52 40 a7 be
       -0.62943965 -0.3370156 -0.3856491 -0.3266626
0000e0 36 83 d4 be d8 2c c5 be 9c a7 03 bf b9 00 d5 be
       -0.41506356 -0.38510776 -0.51427627 -0.41602114
0000f0 57 1c ed be c1 66 1b bf b4 9f 08 bf 51 ac 14 bf
       -0.46310684 -0.60703665 -0.5336869 -0.58075434
000100 24 8a c4 be d5 76 bb be 57 51 d0 be 78 7c f8 be
       -0.38386643 -0.366141 -0.40687057 -0.48532462
000110 4d 9a 83 be 54 c3 19 bf 22 5d 15 bf 0a 64 9d be
       -0.2570366 -0.6006367 -0.58345234 -0.30740386
000120 6f 7d a2 be 8f 9b 01 bf ad 94 09 bf 8f f0 19 bf
       -0.31736323 -0.5062799 -0.53742486 -0.6013269
000130 6a 37 07 bf c8 33 d7 be 9e 38 89 be a8 0e 80 be
       -0.5281893 -0.42031693 -0.26801008 -0.25011182
000140 ee dc cc be 08 cb 7c be f0 a7 df be ad 09 e3 be
       -0.40012306 -0.24686825 -0.43682814 -0.4434332
000150 7e 09 f7 be 5a 5b e1 be 52 e1 8a be ba 09 39 be
       -0.4824943 -0.44015008 -0.2712503 -0.18070117
000160 0e 81 3c be eb 12 7f bd 5e 4b 08 be ae e4 d7 bd
       -0.18408605 -0.0622739 -0.1331 -0.10541664
000170 49 36 fc bd af 36 b6 be ac cb 8c be d0 f8 be be
       -0.123150416 -0.35588595 -0.2749914 -0.37299204
000180 35 97 88 be ae 6d 8d be c4 1f c2 be 92 40 9c be
       -0.26677862 -0.2762274 -0.3791486 -0.30518013
000190 02 46 3d be 3a 99 f8 bd a7 c9 c2 be 21 2c 01 bf
       -0.18483737 -0.12138601 -0.38044474 -0.5045796
0001a0 4a 0f d0 be b9 30 e4 be 71 cc 9c be 71 d7 6b be
       -0.40636665 -0.44568422 -0.30624726 -0.23031403
0001b0 df b4 e7 be 71 68 bd be c9 dd e6 be bc f1 9a be
       -0.4525518 -0.36993745 -0.45091084 -0.30262554
0001c0 9a f9 86 be 20 67 a7 be 60 1e ef be 3a 82 b1 be
       -0.26362306 -0.32695866 -0.46702862 -0.34669667
0001d0 0c 35 cc be 19 06 c6 be 1d 01 10 bf b5 20 b6 be
       -0.39884222 -0.38676527 -0.562517 -0.35571828
0001e0 07 4d f9 be ec d6 e7 be be a3 f1 be 77 55 93 be
       -0.4869158 -0.4528116 -0.47195238 -0.28776142
0001f0 dd fc 2c bf 83 57 ce be cf ba 02 bf 42 b3 c9 be
       -0.6757334 -0.4030114 -0.510663 -0.39394575
000200 00 77 0d bf fa c0 06 bf b0 d5 f7 be f8 bf ae be
       -0.55259705 -0.5263821 -0.48405218 -0.34130836
000210 cf 87 b9 be f3 d4 ef be 21 d8 f7 be ac ab c9 be
       -0.36236426 -0.46842155 -0.4840708 -0.39388788
000220 30 c5 0b bf b8 83 0e bf 35 08 d6 be 8b e4 5f be
       -0.5459776 -0.55669737 -0.41803136 -0.21864526
000230 09 9d e5 be 8c d7 aa be 96 04 c5 be cc fb c3 be
       -0.4484637 -0.33367574 -0.3848006 -0.38278043
000240 a7 55 3b be ef 6f dc be a2 4e 73 be 7e a2 a1 bd
       -0.18294393 -0.4305415 -0.23760465 -0.07892321
000250 05 01 bf be 1a 4c 78 be da a4 9f be 87 1c e1 be
       -0.37305465 -0.2424778 -0.3118046 -0.43967077
000260 a1 03 ab be e7 34 9b be 64 55 aa bd 47 39 4c be
       -0.33401206 -0.303138 -0.08317068 -0.19943725
000270 7c f6 83 bd 2a 84 ab be 77 90 9f bd 16 e9 5e be
       -0.064434975 -0.3349927 -0.07791226 -0.21768603
000280 91 65 6c be 30 8f 7b be c7 4e 1a be d7 ee 96 be
       -0.2308562 -0.2456634 -0.15069114 -0.29479095
000290 d2 23 9c be 45 d9 54 be d7 0e ba be ab 52 64 be
       -0.3049608 -0.20786007 -0.36339447 -0.2229716
0002a0 ea 8b c0 be 47 1f 41 be 5c 4d 8d be e5 c8 4e be
       -0.37606746 -0.18859588 -0.27598083 -0.20193823
0002b0 5e ca 78 be 45 e5 19 be 49 66 56 be af 6c 63 be
       -0.24295947 -0.15028866 -0.20937456 -0.22209428
0002c0 e0 b5 ae be e5 48 9d be f8 7f 1d be 08 48 27 be
       -0.34123135 -0.30719677 -0.15380847 -0.16336071
0002d0 49 94 bb be 9a 1a 98 be c8 1a e6 be 10 05 09 bf
       -0.3663657 -0.29707795 -0.44942307 -0.5352335
0002e0 6a 61 a9 be f9 25 b7 be 6d 03 0e bf 11 25 fc be
       -0.33082134 -0.35771158 -0.5547398 -0.4924703
0002f0 c3 b4 ff be 87 18 c6 be 50 d3 06 bf 24 9d 13 bf
       -0.49942598 -0.38690588 -0.5266619 -0.5766165
000300 11 9d 0f bf ea 0f 22 bf 58 b3 04 bf 13 69 01 bf
       -0.5609904 -0.6330553 -0.51836157 -0.50550956
000310 fa 61 01 bf f8 2a ae be d8 e3 00 bf b9 c4 db be
       -0.50540125 -0.34017158 -0.5034766 -0.42923525
000320 51 23 09 bf e2 a3 e0 be 86 fe b9 be 71 47 94 be
       -0.53569514 -0.43875033 -0.36326998 -0.28960755
000330 4c 57 66 be 4a 9d 3b be 47 64 fc be 1a ba d2 be
       -0.22494239 -0.1832172 -0.49295256 -0.4115761
000340 0e 6b 30 be c1 db a1 bd 7c 37 8e be b0 30 b6 be
       -0.17228338 -0.07903243 -0.27776706 -0.3558402
000350 10 a3 17 be 3a 44 bc be 24 91 4e bd d7 f6 6c be
       -0.14808297 -0.36770803 -0.050431386 -0.23141037
000360 ad fe b0 be 9f 4d 9b bd a6 3e 85 be 6c ef b5 be
       -0.34569302 -0.075831644 -0.2602436 -0.35534227
000370 bc 2c 88 bd f8 75 9f be 73 b1 98 be d1 b1 9e be
       -0.066491574 -0.3114469 -0.29822883 -0.30995038
000380 6f e8 65 be 41 9f 6a be c0 dd e1 be fc 6d d2 bd
       -0.22451948 -0.22912313 -0.44114494 -0.10274884
000390 93 b4 d5 be 53 3d 19 be 59 12 2d be 0e c6 a6 be
       -0.4173933 -0.149648 -0.1690153 -0.3257298
0003a0 46 0d d1 bd e3 54 d2 bd e4 21 6b be eb 95 26 be
       -0.1020761 -0.10270097 -0.22962147 -0.16268127
0003b0 c3 20 07 be c7 53 3d be af fb a4 be e0 96 cf be
       -0.13196091 -0.1848899 -0.3222327 -0.40544796
0003c0 c8 b2 02 be e5 a4 b6 bd 4f c4 9f be f0 c1 54 be
       -0.12763512 -0.0891817 -0.3120446 -0.20777106
0003d0 94 bc 8a be 40 13 f3 be 36 d0 b8 be cc e1 fc be
       -0.27097 -0.47475624 -0.36096352 -0.4939102
0003e0 c7 28 a5 be 70 65 aa be bd ca b4 be 5c 39 16 bf
       -0.32257673 -0.33280516 -0.35310927 -0.58681273
0003f0 72 ef cf be 26 85 b4 be da 75 ae be cc 10 ec be
       -0.4061237 -0.35257834 -0.3407429 -0.46106565
